checkpoint.pth (torch, 22127 bytes, 6 tensors)

fc1.weight f4 [64, 8]
00000000: dbe1 79bd e4d5 28bf ce9c 5d3e f3b5 35bf
00000010: 077d ff3c 60a3 b2bb 6de0 82bb bf29 723e
00000020: d05c 123e 2c3e ee3d 1b19 a8bf ac1e bfbe
00000030: 7224 78bf 61ae a9bf b915 4fbe d793 d53e
00000040: 2e32 d93e 0e4e b8bd 40fb 3bba 696e 7bbf
00000050: 19ae 95bf 8710 523f 5425 523e dfb2 33be
00000060: 47cc d33d f0ac 54bf 2150 763f d9c2 65bf
00000070: 51ca 5cbf 1ba5 e8be e31b bf3c f034 b93e
00000080: c65b 1ebf daf3 55bf 3aa6 543b fb11 80bf
00000090: 97e1 e3be bb73 113d ab48 383e ca9b fd3d
000000a0: ebb4 13bd 371b 88bf aca0 8d3f 86b9 84bf
000000b0: eb03 44bf 202b d1be ca4c 5a3e d762 793e
000000c0: 5f31 12bf f764 ad3c 324b c33e a794 033e
000000d0: 065c 873f 4686 7d3f b69e 523e 9200 14bf
000000e0: 533a 403f 9949 20bf 3774 acbf 10dd 9bbf
000000f0: 5cea 2a3e 1a81 2d3d 4cec 083e deb2 29bd
00000100: 0e83 533e 063f 8fbe 7839 a03f 5cc5 e73e
00000110: 9a0f aabe 85b5 1a3f a874 cebe 35cd 48bf
00000120: fba4 27bf a8dc 453e a275 9e3f d523 22be
00000130: 2a61 0fc0 e293 c6be 6ea8 9c3e f3a7 e8bd
00000140: d834 12bf 82f1 333f afb7 ae3e 604d 98bf
00000150: 6919 cfbd 5af7 543f 7a62 4c3e cc53 b63e
00000160: c405 ebbe 5b8c 34be e845 ee3c ed79 b83e
00000170: ae1b 823f 193a 203f 7d20 fcbe bc87 bbbd
00000180: c81d 6fbe 9e22 993e bbb5 bebd 08b7 0bbe
00000190: ae08 e03e 539e 783f d046 e63e 7202 a1bf
000001a0: 282b 86bf d28c bfbf b302 8bbe 044d 63bf
000001b0: d15d 1dbe f722 d43d 8862 873e 7f40 ac3d
000001c0: d884 31bf c46b 2b3f 8dbe 853f 0b03 f6bf
000001d0: ee80 f6bf fce2 603e 77e4 883e 0c0e 053f
000001e0: 1c92 b9bd fec4 83be e243 6f3f 2914 f73e
000001f0: 15ab 693f 4d0e b5be 1899 8ebf 564b 043f
00000200: c731 bc3e ef6e 97bf 960d 69bf 91b4 adbe
00000210: 716c 873d b352 5abf 5108 bc3e 6f51 3a3e
00000220: 5a4c 04bf 3fef cabe b79e 50be 0735 a7bd
00000230: fc8a 373f 1f7c 1c3f 82f7 873e e604 43bf
00000240: 0ed9 a83e 79d5 bdbf 2c61 e73e afd7 293e
00000250: 866f e13e 1dfa 38bf 8ef6 5dbf 8b12 8e3e
00000260: 64fc c6bb 3f09 e83e d468 b93e 326c 91bf
00000270: 3583 783e db4f b5bf 65eb c23e f1ea ac3e
00000280: 59c5 a3bf 4875 3cbd 5e97 4ebf 4d7a 38bf
00000290: eeaa c5be 4136 8cbd a0f1 3ebe ce1b fb3c
000002a0: 7d57 53bf 52bf 1fbf 790e 15bf cb8d 35bf
000002b0: 6f91 053f b8d1 9b3e f4fc 303e 75e2 663e
000002c0: 5cc8 d83b 6e8f f1bf f9e8 c03f 7c75 50bf
000002d0: 5cc6 62bf 0d31 91be 93c6 ae3e de8a 463e
000002e0: 282a a23f 6a16 33bf ab6c f43e 7d3f 75bf
000002f0: d194 55bf 284c 023c a68c 853e 878e 863e
00000300: 6854 5fbf 96f6 47bf 6647 43bf 3905 14bf
00000310: 2729 f73e 5d8e ad3e e0c5 003e 8694 22be
00000320: d904 73be b278 5ebf 7533 a33e 2f52 97bf
00000330: 3751 fabe ccc0 63be f368 11be 26b4 a63e
00000340: 4639 203f 2070 0cc0 f55a 3dbf 71c7 91bf
00000350: cd9e a93e 6037 8cbe c5f8 36bc 068e 47bc
00000360: 73b7 a83e 79f2 10c0 688c a13f 1d61 2abf
00000370: 1e7b 32bf 76a9 0fbe 6594 ed3d ff2d 303e
00000380: 699e a5bf 73a2 0d3f 3e00 0ec0 16eb a03f
00000390: c28f 343e 4837 803e 90c8 14bf 71bf 85be
000003a0: 5ff7 9a3b cea3 5b3f 0d35 7a3f f2fa b3bf
000003b0: b5d4 9b3f 3027 843e 46d4 cebe bb40 05bf
000003c0: ac48 8fbe 9883 bfbf f756 80be f238 163f
000003d0: 81eb 0dbf a5ee 81bf d83d 48be 7b76 efbe
000003e0: e8da 59bf 2cfa 893e 16eb 67be 41ee d83e
000003f0: 32dd 463f a7dc 1e3e 0a9d 02bf ab10 cdbe
-0.06100641 -0.6595137 0.21641847 -0.7098076 0.031187547 -0.0054516047 -0.003994039 0.23648737
0.14293218 0.11632952 -1.3132662 -0.37328088 -0.9693061 -1.3256341 -0.2022313 0.41714355
0.42421097 -0.08999263 -0.0007170923 -0.9821535 -1.1693755 0.8205647 0.20522052 -0.17548703
0.10341697 -0.8307638 0.96216017 -0.8975044 -0.8624621 -0.45438465 0.023328727 0.361732
-0.61858785 -0.8357521 0.0032447712 -1.0005487 -0.4450805 0.03551076 0.1799647 0.1238323
-0.03606121 -1.0633305 1.1064658 -1.0369117 -0.7656848 -0.40853214 0.21318355 0.2435411
-0.57106584 0.021166308 0.38143307 0.12849675 1.0574958 0.9903301 0.20568356 -0.5781337
0.75088996 -0.626123 -1.3472966 -1.2176838 0.16690964 0.04235945 0.1337139 -0.041430347
0.20655462 -0.2797777 1.2517538 0.4526776 -0.33215028 0.60433227 -0.40323377 -0.7843812
-0.65486115 0.19322455 1.2379649 -0.15833981 -2.2403054 -0.387847 0.30597252 -0.11360159
-0.57111883 0.70290387 0.34124514 -1.1898613 -0.101122685 0.8318993 0.19959441 0.35610807
-0.45902836 -0.17631666 0.029086068 0.36030522 1.0164697 0.6258865 -0.49243537 -0.09156749
-0.23351204 0.29909223 -0.09312006 -0.1364404 0.43756622 0.97116584 0.449759 -1.2578871
-1.048192 -1.496485 -0.27150497 -0.8878939 -0.1536782 0.103582315 0.2644236 0.08410739
-0.6934333 0.6696131 1.0448776 -1.9219679 -1.9258096 0.21961588 0.26736805 0.5197456
-0.09061071 -0.2573623 0.93462956 0.48257568 0.91276675 -0.35362473 -1.114047 0.51677454
0.36756727 -1.1830729 -0.91036355 -0.33926824 0.066124804 -0.8528244 0.36725095 0.18195127
-0.51679003 -0.39635655 -0.20373045 -0.08164411 0.7169645 0.61126894 0.2655602 -0.7617935
0.329781 -1.4830772 0.45191324 0.16586183 0.44030398 -0.7225664 -0.8670434 0.27748522
-0.006072568 0.45319554 0.3621279 -1.1361144 0.24268802 -1.4164995 0.38070217 0.33772996
-1.2794601 -0.046010286 -0.8069972 -0.72061616 -0.38606972 -0.068462856 -0.1864686 0.030652907
-0.8255537 -0.62401307 -0.5822521 -0.70919484 0.5217504 0.3043344 0.17283994 0.22547324
0.0066156816 -1.8871896 1.5071098 -0.81429267 -0.8858392 -0.28357735 0.34135875 0.19388911
1.2669115 -0.69956076 0.47739157 -0.958 -0.834302 0.007952727 0.2608387 0.26280615
-0.8723817 -0.78110635 -0.7628082 -0.5782047 0.48273584 0.33897677 0.12575483 -0.1587697
-0.23732318 -0.86902916 0.31875196 -1.1821955 -0.48890087 -0.22241515 -0.14200191 0.32559317
0.6258739 -2.1943436 -0.73966914 -1.138899 0.33128968 -0.27385998 -0.01116771 -0.012179857
0.3295246 -2.2647994 1.2620974 -0.66554433 -0.6971911 -0.14029488 0.1160057 0.17205046
-1.2938968 0.55326 -2.2187648 1.2571743 0.17632964 0.25042176 -0.58118534 -0.2612262
0.004729196 0.8579682 0.977372 -1.4060957 1.2174288 0.25811148 -0.40396327 -0.52051896
-0.27985132 -1.4962034 -0.2506635 0.5868064 -0.55437475 -1.0150954 -0.19554842 -0.4677008
-0.8509965 0.26948678 -0.22648272 0.42369273 0.7768127 0.1551386 -0.5102087 -0.4005178

fc1.bias f4 [64]
00000000: 8a4d 1bbf fc38 f83c f6f6 4fbc 4f51 c2be
00000010: 7af8 bcbe c87b d4be fedf 933e 01da cf3e
00000020: d759 043e ca6e 5a3d 6892 2e3f 7dd4 29bf
00000030: c200 e2be b94a d1be ba14 583f 7e64 76be
00000040: 78ad 4c3d 3adb 95be 76a7 123f cb07 673f
00000050: 01f6 c73d 0c0f debe 04a2 00bf 2a8a d4be
00000060: 29fc dcbe 9771 f0be b69d 923e c951 8ebe
00000070: e2f9 693e f860 81bb fac6 69bf 3f91 d83e
00000080: 8315 d3be 1aee 133f a920 17bf 0582 123c
00000090: 4e79 013f 72c5 083f 97be abbe 531f a63e
000000a0: 4099 6a3e 2225 52be b5bb a13e 5a1c b43d
000000b0: 34e0 e0bd 2849 8d3e 2515 4c3f fdf6 173f
000000c0: 7b75 6a3e ff21 61bd d0dc a0bc 6103 713f
000000d0: 0989 533e ecfc 433f b6a7 573e b0df a03d
000000e0: f387 8d3e a846 293f 9514 ba3e d73b 313f
000000f0: 275b abbe 8e60 b03c aa29 e53e accb 8abe
-0.6066519 0.03030061 -0.012693157 -0.3795266 -0.36908323 -0.41500688 0.2888183 0.4059601
0.12924896 0.053328313 0.6819215 -0.66339856 -0.44141203 -0.4087732 0.84406626 -0.24061772
0.04997012 -0.2926882 0.57286775 0.90246266 0.097637184 -0.43370855 -0.50247216 -0.4151166
-0.43161133 -0.46961662 0.2863595 -0.27796772 0.22849229 -0.003948327 -0.9131924 0.42298314
-0.4122735 0.5778519 -0.5903421 0.008942132 0.5057572 0.5342628 -0.33543846 0.32445773
0.22910023 -0.20521978 0.31588522 0.0879447 -0.10980263 0.27594876 0.79719764 0.5936125
0.22896378 -0.05496406 -0.019636542 0.9414578 0.20657744 0.76557803 0.2106007 0.07855165
0.27642784 0.6612344 0.36343828 0.69231933 -0.3346798 0.021530416 0.4475835 -0.27108514

fc2.weight f4 [64, 64]
00000000: 288f b43d bd3b 16be 64eb 1a3e ee58 6e3f
00000010: 0a69 a2bd 3d53 193f 6a69 403e 370c acbe
00000020: 810d a83e db29 cb3e 99f4 24bd 8309 123f
00000030: 4fb2 613e 0bd9 cb3e 46a1 303e 5d0a c03e
00000040: 4c5f 8cbd 2a98 e83e 06ca d03d 247e 8d3c
00000050: 5a9e 073e d436 173e ab3b c23f c495 993f
00000060: dd2f a5bd 37d7 2d3f 0eec 97bf 2ff5 933f
00000070: 1ff6 0c3e c8a5 10bf a0d4 ab3e bd0e 043f
00000080: d0ec 3a3c 5baa 943e 363d 723e 3230 36bf
00000090: 9819 213f f717 023f 309d 353d e90f 4e3f
000000a0: 302b 6f3e 3245 d6be d624 4d3f bedc 39bf
000000b0: f0b1 9ebe 2fe0 483e 3f50 b5bd 0440 35be
000000c0: 7c2b 823f 428e 86be 383c c9bf 0f3f 2fbe
000000d0: efab 973e 4a6e b3be a304 5e3e 497e 76bf
000000e0: 1240 76be bb96 053e d6d3 013f 37be a3be
000000f0: 2c45 babe aa7e b2be 2645 42bf 95cf 0e3f
00000100: 22ef c5bd 1434 c8bc dc5b 7c3c b273 fdbc
00000110: ec7b e0bd 27a5 d23d 020c a7bd eec9 a03d
00000120: 5ba6 0abe f18e 26bd e987 163d d7ed 90bd
00000130: fc27 a83d 58f4 d6bd 1d76 0fbe 93db 92bd
00000140: 4294 1d3c ccb3 ce3d 55ae ebbd e874 a83c
00000150: 23ff 32bd 3f66 48bd cf6a aa3d e532 01be
00000160: 4155 77bb 0c2c bb3d 9352 a5bc 4fdd 763d
00000170: 47e7 28bd 0f40 983d 3b5b 1abe cbe4 7bbc
00000180: bd14 1fbd 997b 6c3c e576 3f3d 858b a03d
00000190: 434e b7bc 7f4f 32bd ca4f af3d 1466 12bd
000001a0: 08b3 b43d be3d dcbd f293 16bd b386 06bd
000001b0: 4266 0f3d 8dda 973d 6185 0cbd 5e4b ecbd
000001c0: e589 4f3d c7fb e83c ff9a 243d cc69 d9bd
000001d0: 9993 8d3d aef4 a53d 3c0f 24bc 66ba 01be
000001e0: bc1f 6c3d 1e2a e9bd 0fb4 5bbb 4dd3 d9bc
000001f0: 5a4a 91bd 9d57 4c3d e894 17be 50e2 4bbb
00000200: 28f8 d03d 642e 2c3e 0cba 8abe 2f2b 293f
00000210: e078 533e a126 133f 7191 d93e 7739 45be
00000220: 7484 983e a41c d1be 0468 a03c 5a01 9a3f
00000230: 1980 4a3e 2428 063f e165 2f3e e013 a13f
00000240: 657c ebbd 2d9e ad3e 3475 713e 88d3 6bbe
00000250: ca0b 903e d047 983e 2136 ac3f 42a3 163f
00000260: e1fd 143f a413 513f 994a 6dbf 7671 153f
00000270: a282 6b3e ed64 acbe fc93 be3e fa78 503f
00000280: b120 babc a83c 963e dcaf 973e 2a5b 98bf
00000290: 9f02 053f d2c4 b53e ccf7 ca3d 2801 083f
000002a0: ceed a83e 0531 703e c66a 0c3f 74ad 11bf
000002b0: b82d 0bbe 1a26 f43d f20b 76be 46bb 943d
000002c0: 68d7 633f 975a 543d 39d5 f0bf ac17 e93d
000002d0: fea2 e33e a61b afbe 3a4f 833c e6c7 6abf
000002e0: 933c a1be ff4a d63d 56be 543e 1567 d4bd
000002f0: 9463 2bbe d3af bfbe 3e86 61bf 56fd 263f
00000300: a27c f93d d295 e73e f3fb 2cbe 12b8 ad3e
00000310: 732f 133f 8054 cb3e 8154 5b3f a454 77be
00000320: 1407 b83e ca90 22bf 55c4 bf3c 3dc0 813f
00000330: 5a0c 5fbe e7f6 823f 299d 833e 77f5 8b3f
00000340: 417e b7be bec4 563d 8e28 ff3e f2ce 42be
00000350: 4cc2 ff3e 1d75 663e 428c 5b3f 012d 2d3f
00000360: 0205 993f 7ba1 773f 84ec 7cbf 9145 bc3e
00000370: 3900 e7bd 0818 1ebf 772c 2e3f 2a4b 8f3e
00000380: 9121 e53e 3001 353f 085c e13e 9a1a b1bf
00000390: a5e0 afbd af2a 273f 0690 fe3d a6e8 25bc
000003a0: 2d8f 503e 6441 0abf 5562 343e 3065 31bf
000003b0: 27fc 9fbc 1608 43be c0a9 20bf 1081 f73e
000003c0: bfd2 4d3f 5162 28be 1302 a3bf 9f93 06be
000003d0: a71d d73e e86c 1cbe fd2d 763e fee0 4bbf
000003e0: 3fc9 09bf 1dab 26be ca87 e93e 5364 02be
000003f0: 4b60 1cbd b26d 9dbe 13ac 03bf 4cd8 7fbe
0.088163674 -0.14671226 0.15128857 0.93104446 -0.07930191 0.59892637 0.18790212 -0.3360307
0.32822803 0.3968037 -0.04027233 0.57045764 0.22040676 0.39814028 0.17249021 0.37507907
-0.06854114 0.45428592 0.10194783 0.017272063 0.13244 0.14767009 1.5174459 1.199883
-0.0806577 0.67906517 -1.1868913 1.1559199 0.13765763 -0.5650296 0.33560658 0.5158499
0.011409 0.2903622 0.23656163 -0.7116729 0.6292968 0.5081782 0.04433936 0.80493027
0.23356318 -0.41849667 0.8013433 -0.7260245 -0.3099513 0.19616769 -0.08853196 -0.17700201
1.016952 -0.2628041 -1.5721502 -0.17113899 0.29623362 -0.3504508 0.21681456 -0.96286446
-0.24047878 0.1304578 0.5071386 -0.3198106 -0.363809 -0.34862262 -0.7588676 0.55785495
-0.096647516 -0.024438895 0.01540276 -0.030938957 -0.10961136 0.102854066 -0.08156587 0.07851015
-0.13540022 -0.040663663 0.036750708 -0.07076614 0.082107514 -0.104958236 -0.140099 -0.07170787
0.009617867 0.10092887 -0.115078606 0.020563558 -0.04370035 -0.048925634 0.08321153 -0.12617071
-0.0037740024 0.09139261 -0.020180976 0.06026965 -0.04123619 0.07434093 -0.15073864 -0.015374373
-0.038838137 0.014433765 0.046744246 0.07839111 -0.022376185 -0.043532845 0.085601404 -0.03574188
0.0882321 -0.10753964 -0.036762185 -0.032843303 0.03500963 0.07414732 -0.034306888 -0.11537813
0.050668616 0.02844037 0.04018688 -0.10615882 0.06912918 0.081033096 -0.010013398 -0.12668762
0.05764745 -0.11384986 -0.0033524071 -0.026590014 -0.070942596 0.049888242 -0.14802897 -0.0031110235
0.10203582 0.16814572 -0.27095068 0.6608152 0.20651579 0.5748082 0.42493775 -0.19260202
0.29788554 -0.40842164 0.019580849 1.2031662 0.19775428 0.52405 0.17128707 1.258419
-0.11498336 0.3390974 0.23579866 -0.23029912 0.28133994 0.2974229 1.3454019 0.5884286
0.5819989 0.81670594 -0.9269195 0.5837625 0.22999051 -0.3367075 0.37222278 0.81434596
-0.022720667 0.29343152 0.29626358 -1.1902821 0.51957124 0.35501724 0.09910545 0.53126764
0.3299393 0.234562 0.54850423 -0.56905293 -0.13591659 0.1192133 -0.24027994 0.07262282
0.8900056 0.051844206 -1.881507 0.11381468 0.4446029 -0.34200782 0.01602899 -0.9171127
-0.31491527 0.10463523 0.20775732 -0.10371224 -0.16737205 -0.3743883 -0.8809546 0.6523031
0.12181975 0.4523149 -0.16892986 0.33929497 0.57494277 0.39712906 0.8567582 -0.24153382
0.359429 -0.6350218 0.023409048 1.0136791 -0.21782055 1.0231599 0.2570584 1.0934285
-0.35838512 0.05243372 0.49835628 -0.19024256 0.49952924 0.22505613 0.8576089 0.67646796
1.1954653 0.96730775 -0.98798394 0.36771825 -0.11279339 -0.6175542 0.680366 0.27987033
0.44752172 0.70704937 0.44015527 -1.3836243 -0.085877694 0.65299505 0.12429814 -0.0101262685
0.20367117 -0.5400603 0.17615636 -0.69295025 -0.019529415 -0.19046053 -0.6275902 0.48340654
0.803997 -0.16443755 -1.2735008 -0.1314225 0.4201481 -0.1527592 0.2404098 -0.79640186
-0.538227 -0.16276212 0.4561141 -0.12733583 -0.03817777 -0.30747753 -0.5143444 -0.24984854

fc2.bias f4 [64]
00000000: 28c3 983d 79f1 24be 18d6 f2bd 692b c43d
00000010: fb8f 13be 2a0e 76bd 7921 bc3e 630b 3fbc
00000020: 1800 ee3c a81d 86be bb88 42be 233e 01be
00000030: b872 253d 6ff6 ffbd f3c4 973b ef02 853f
00000040: 60ef cd3e f242 4dbd 0d1c 5b3e 690b 5ebd
00000050: 68ef c4bd 396d a7be 7132 483e 7116 01be
00000060: 2945 4bbe a01a 613f 5014 b73d 8fd4 e9bd
00000070: b4f5 993d 5a17 79be c8ee 7a3e 4038 81bb
00000080: 9acb 0cbe 44f6 9e3e 1385 3fbe 04d4 d8bd
00000090: 11bf ba3d ba76 5c3d 24a9 91bd 370e 2b3e
000000a0: d9ab 92bd 4b65 923d 727f c33d e7b8 103f
000000b0: 97eb f4bd e87b c83d d747 ddbd f96f 473c
000000c0: 0ee7 52bd 36c3 093d aed9 05bf 26f0 c6bd
000000d0: a360 8a3e 2725 a93e bc53 a4bd 6e55 5d3f
000000e0: eb4d 39be 1fc4 453e e9e5 efbd 41c6 c2bd
000000f0: c4aa 7fbe 7d0a e5bd 24a5 96bd 75c7 f4bc
0.07459098 -0.1610774 -0.118572414 0.09578592 -0.14410393 -0.0600721 0.36744288 -0.01166043
0.02905278 -0.261945 -0.18997471 -0.1262136 0.040392607 -0.12498175 0.0046316325 1.039152
0.4022169 -0.050112672 0.2139742 -0.0542101 -0.096159756 -0.32700518 0.19550492 -0.12606217
-0.19850601 0.8793125 0.08939421 -0.114174955 0.07517567 -0.24325314 0.2450515 -0.003943473
-0.13749543 0.3104726 -0.18703108 -0.10587314 0.09118474 0.053824164 -0.07112339 0.16704641
-0.071616836 0.07148226 0.09545793 0.5653214 -0.11958998 0.09789258 -0.10804718 0.012172692
-0.051489882 0.033633433 -0.5228528 -0.097137734 0.27026853 0.33036157 -0.080237836 0.8645848
-0.1809613 0.19313096 -0.11713774 -0.0951047 -0.24967486 -0.11183641 -0.07355717 -0.029880265

fc3.weight f4 [4, 64]
00000000: c2ca 9abf c7c7 8bbc 5e75 17bf 2c4f d6be
00000010: 6870 6cbf bb70 e7be 7686 dc3f eba6 4a3d
00000020: b803 c7bd d77c b2bf 3cf6 eabe 1636 93bd
00000030: d744 45bf 3e7b e8be 91a9 bbbf bdf8 ae3f
00000040: 3d51 2540 3d76 36bf 5c17 a63f 8740 b2be
00000050: f15b 12bf 0e00 cbbe f718 a23f fe38 debc
00000060: a70c fcbe 83d1 cf3f f8b9 e73d e7e1 78bf
00000070: 7ee2 2ebf c8c2 3cbf 0425 fd3a ac10 803d
00000080: c3e0 07bf e735 0e40 7b8e c2be 6840 dcbd
00000090: e026 143d 5c9e e1be 8d6e 18bf e04d 98bf
000000a0: 5145 cdbe 17c7 433e 501a 623e e791 b63f
000000b0: b44e 373d ccf3 05bd daa0 983d 07fb 27bf
000000c0: 955b 06bf bd85 5ebe 96a3 1b3e 0cc2 71bf
000000d0: 653d 5a40 7bf0 14bf e3e8 87be 9253 f13f
000000e0: ee35 90bf 69e5 1abf b405 8c3b 8ab1 97be
000000f0: b14c 44bf a836 d3be 790c ad3d e4f7 e3be
00000100: ac7f 10be 3b70 653d c352 f1be 627e 4bbf
00000110: 0c7c 6bbf 5e29 28bf 978a d03f a1f2 71bd
00000120: 2afc e33d 0d84 70bc 1aa3 57bf fc9b 35bd
00000130: 4162 74bf d5c4 3abf b617 afbd b5d0 a23f
00000140: 7a79 3840 d2f4 d7be 605d dd3f abc7 b4be
00000150: 2fd8 3cbf 1fb6 953f ffd5 c63f a0b1 46bd
00000160: 6e0d e3be b8b3 a23f c791 94be 7c7f b8be
00000170: 4d5d 42bf 4ea1 03bf 145e 97bf eb51 a13c
00000180: 04db 04bf 0a51 1b40 413c 38bf cc87 ff3d
00000190: d7b8 95be f16e 1bbf a25d d1be dd59 4f3e
000001a0: 1e08 4bbf c5c2 14bf 4358 80bf 906a ae3f
000001b0: a0b1 8abd 601a 2f3c ccfa d03d 8a74 01bf
000001c0: 2603 1fbf 4089 1fbf 7387 93bf 1996 2abe
000001d0: 5ac5 5e40 f3b1 203e 7e4a 3abf 4344 d53f
000001e0: 82b3 07bf fda5 1fbf e9a0 bfbb c714 82bf
000001f0: 67a2 07bf 03f3 05bf 46b2 ff3d f791 17bf
00000200: ecc8 79bf f8cd cfbd bdf1 48bf d0ba aebe
00000210: f878 24bc 35ad d9be 4a24 c43f 2b14 6b3d
00000220: 4c08 af3d b720 413f ad15 82be aefc b63c
00000230: d3d7 12bf 7b41 10bf b86a 38bf 18a3 d83f
00000240: 1233 0c40 215a 57bf 5185 933f 4616 11bf
00000250: 677b 99be 81f2 95bf 1bff df3f a65f 783b
00000260: 8ba4 c9be 15dd 2e3f 93dc 86bf e073 1fbf
00000270: 2f79 e3be 550f 6ebe b626 1ebe b708 873d
00000280: 2424 c7be 142b 5940 69ff c4be 9032 4fbd
00000290: 3c35 a23f e0f6 0dbf 74cf 0ebf 8ca3 10bf
000002a0: ea7b 26bf 21f6 4fbf 0829 9fbf 75ee c03f
000002b0: 9f6c 7c38 c0fa 4dbb 61d0 6fbd 7f41 16bf
000002c0: 15e9 e9be ab08 72bf 8a71 80bf 2288 7ebf
000002d0: a374 ea3f 3002 89bf 061e bdbe 4b75 1440
000002e0: 785b b7bd 6b42 2cbf a408 783c 52fc 89be
000002f0: 16a2 cebe 0519 0dbf 3227 5c3d 1db4 0abf
00000300: e31a 37bf fefc 463d 1752 c8be cbbf 9dbf
00000310: 13cc 16bf 9605 3ebf 699a cf3f 6a76 6fbd
00000320: 5047 933c 4101 7dbf 7482 0abf 8012 23bb
00000330: 21de 2ebf be5b 0dbf ee88 afbe 6cff d93f
00000340: ae0d 1840 257d afbe 2eff b63f e7fc 1bbf
00000350: 459c 2cbf 0eb1 b9bf 902e e63f 2369 aa3a
00000360: 0f45 0fbf 1cc3 3c3f 9ce7 e9be c204 55bf
00000370: f29b f0be 0f64 23bf dd57 a93e 11bf b9bd
00000380: 33de 27bf d9fa 0f40 205e 18bf a461 9bbd
00000390: 27a2 48bf 9e66 05bf cfa7 5bbf fd81 a4bf
000003a0: 4556 f3be dace 46be f489 f93e 93bb b73f
000003b0: 7adb d13d 9064 f3bd c605 213d 7094 fabe
000003c0: d244 14bf ba3f 03be a32a a23f f8fe 4cbf
000003d0: af80 6d40 a229 2d3f 36c3 4cbf 90f5 d83f
000003e0: 1389 8dbe 7eec 1bbf 6fb4 7f3d af22 2abf
000003f0: c3dd 05bf 8a3f 35bf 0ec3 143d d887 01bf
-1.2093127 -0.017063035 -0.59163463 -0.41857278 -0.9235902 -0.45203194 1.7228534 0.04947559
-0.09717506 -1.3944348 -0.45890987 -0.071880504 -0.77058166 -0.45406526 -1.4661123 1.3669659
2.5830834 -0.7127417 1.2975879 -0.34814855 -0.5717154 -0.3964848 1.2663869 -0.027126785
-0.49228403 1.6235813 0.113147676 -0.972197 -0.6831435 -0.7373471 0.00193134 0.0625318
-0.53077334 2.22204 -0.3799933 -0.10754472 0.036169887 -0.4406613 -0.5954369 -1.1898766
-0.40091947 0.19118915 0.2208035 1.4263276 0.04475279 -0.032703206 0.07452555 -0.6561741
-0.52483493 -0.21730705 0.15199122 -0.9443672 3.4099972 -0.58179444 -0.26544866 1.8853629
-1.1266458 -0.605063 0.004273141 -0.2962764 -0.7667952 -0.41252637 0.084496446 -0.44525063
-0.14111203 0.056015234 -0.47133455 -0.7948972 -0.91986156 -0.6568812 1.6292294 -0.05906928
0.11132081 -0.014679921 -0.8423325 -0.04433821 -0.95462424 -0.7295659 -0.085494444 1.2719942
2.8824143 -0.4217897 1.7294121 -0.35308585 -0.7376737 1.1696204 1.5534056 -0.04850924
-0.44346184 1.2711096 -0.2901747 -0.36034763 -0.75923616 -0.51418006 -1.1825585 0.019692382
-0.5189669 2.4268212 -0.7196694 0.12477073 -0.29242584 -0.6071616 -0.4089175 0.20249124
-0.7930926 -0.58109695 -1.0026935 1.362627 -0.067721605 0.010687441 0.10204086 -0.5056845
-0.6211418 -0.623188 -1.1525711 -0.1665882 3.4807954 0.15692882 -0.72769916 1.6661457
-0.5300828 -0.62362653 -0.0058480394 -1.0162591 -0.5298218 -0.5232393 0.12485175 -0.592071
-0.9757221 -0.10146707 -0.78493863 -0.34126902 -0.010038607 -0.4251496 1.5323575 0.05739228
0.085465044 0.75440544 -0.25407162 0.022337284 -0.5736057 -0.56349915 -0.7203784 1.6924772
2.190617 -0.841219 1.152506 -0.5667461 -0.2997696 -1.1714631 1.7499727 0.0037898808
-0.3938335 0.68306094 -1.0536064 -0.62286186 -0.44428393 -0.23248036 -0.15444455 0.06593459
-0.3889476 3.3932543 -0.38476112 -0.05058533 1.2672496 -0.55454826 -0.557853 -0.5649955
-0.6503283 -0.8123494 -1.2434397 1.5072771 6.0182643e-05 -0.0031429976 -0.058548335 -0.5869369
-0.4568564 -0.94544476 -1.0034649 -0.9942647 1.8316845 -1.0703793 -0.3693697 2.319659
-0.08952993 -0.67288846 0.015138779 -0.26950318 -0.40358037 -0.551163 0.053748317 -0.5418108
-0.715254 0.048581116 -0.3912513 -1.2324156 -0.5890514 -0.74227273 1.6218997 -0.058462538
0.01797834 -0.9883004 -0.54105306 -0.0024882853 -0.6830769 -0.5521811 -0.34284157 1.7031074
2.375835 -0.34275165 1.4296625 -0.60932773 -0.6742595 -1.4507158 1.798296 0.0013001304
-0.5596475 0.73735213 -0.45684516 -0.83210385 -0.46993977 -0.6382455 0.33074847 -0.09069646
-0.65573424 2.2496855 -0.59518623 -0.07586983 -0.78372425 -0.52109706 -0.8580293 -1.2852169
-0.47526756 -0.19414845 0.48738062 1.4354118 0.1024694 -0.11884415 0.039312147 -0.48941374
-0.5791751 -0.12817279 1.2669262 -0.8007655 3.7109792 0.6764165 -0.7998537 1.694994
-0.27643642 -0.60907733 0.062427934 -0.6645917 -0.52291507 -0.7080008 0.03631883 -0.50597906

fc3.bias f4 [4]
00000000: ac55 0b3f f51d 173f 1d37 da3e ed54 eabd
0.544276 0.59030086 0.42620173 -0.114419796
